…
.add(Dropout(0.5))\n","model.add(Dense(7, activation='softmax'))\n","\n","#Compilar la red\n","model.compile(loss='categorical_crossentropy', optimizer='adam', metrics=['accuracy'])\n","\n","#Imprimir informacion de la red\n","print(model.summary())"],"execution_count":null,"outputs":[{"output_type":"stream","name":"stdout","text":["Model: \"sequential\"\n","_________________________________________________________________\n","Layer (type)                 Output Shape              Param #   \n","=================================================================\n","conv2d (Conv2D)              (None, 511, 511, 32)      416       \n","_________________________________________________________________\n","max_pooling2d (MaxPooling2D) (None, 255, 255, 32)      0         \n","_________________________________________________________________\n","conv2d_1 (Conv2D)            (None, 254, 254, 32)      4128      \n","_________________________________________________________________\n","max_pooling2d_1 (MaxPooling2 (None, 127, 127, 32)      0         \n","_________________________________________________________________\n","dropout (Dropout)            (None, 127, 127, 32)      0         \n","_________________________________________________________________\n","flatten (Flatten)            (None, 516128)            0         \n","_________________________________________________________________\n","dense (Dense)                (None, 128)               66064512  \n","_________________________________________________________________\n","dropout_1 (Dropout)          (None, 128)               0         \n","_________________________________________________________________\n","dense_1 (Dense)              (None, 7)                 903       \n","=================================================================\n","Total params: 66,069,959\n","Trainable params: 66,069,959\n","Non-trainable params: 0\n","_________________________________________________________________\n","None\n"]}]},{"cell_type":"code","metadata":{"colab":{"base_uri":"https://localhost:8080/"},"id":"-wcPk89FwV8I","executionInfo":{"status":"ok","timestamp":1633
…
